…
2020-01-15 02:26:22.286203: I tensorflow/compiler/xla/service/service.cc:168] XLA service 0x2af26b8cbcf0 executing computations on platform Host. Devices:
2020-01-15 02:26:22.286231: I tensorflow/compiler/xla/service/service.cc:175]   StreamExecutor device (0): Host, Default Version
/public/home/liqi/programing/transcribe_cnn
搭建神经网络
Model: "model_1"
_________________________________________________________________
Layer (type)                 Output Shape              Param #   
=================================================================
numerics_input (InputLayer)  [(None, 491, 1)]          0         
_________________________________________________________________
batch_normalization (BatchNo (None, 491, 1)            1964      
_________________________________________________________________
conv1D_3 (Conv1D)            (None, 491, 32)           192       
_________________________________________________________________
conv1D_4 (Conv1D)            (None, 491, 64)           10304     
_________________________________________________________________
dropout_2 (Dropout)          (None, 491, 64)           0         
_________________________________________________________________
flatten_1 (Flatten)          (None, 31424)             0         
_________________________________________________________________
dense_1 (Dense)              (None, 493)               15492525  
=================================================================
Total params: 15,504,985
Trainable params: 15,504,003
Non-trainable params: 982
_________________________________________________________________
None
Train on 298 samples, validate on 127 samples
Epoch 1/600
200/298 [===================>..........] - ETA: 0s - loss: 262859.4062 - accuracy: 0.0000e+00298/298 [==============================] - 2s 6ms/sample - loss: 255359.6675 - accuracy: 0.1007 - val_loss: 207055.5156 - val_accuracy: 0.0000e+00
…
200/298 [===================>..........] - ETA: 0s - loss: 241172.7812 - accuracy: 1.0000298/298 [==============================] - 1s 2ms/sample - loss: 255320.2466 - accuracy: 1.0000 - val_loss: 207020.0000 - val_accuracy: 1.0000
Model: "model"
_________________________________________________________________
Layer (type)                 Output Shape              Param #   
=================================================================
numerics_input (InputLayer)  [(None, 491, 1)]          0         
_________________________________________________________________
batch_normalization (BatchNo (None, 491, 1)            1964      
_________________________________________________________________
conv1D_3 (Conv1D)            (None, 491, 32)           192       
_________________________________________________________________
conv1D_4 (Conv1D)            (None, 491, 64)           10304     
_________________________________________________________________
dropout_2 (Dropout)          (None, 491, 64)           0         
_________________________________________________________________
batch_normalization_1 (Batch (None, 491, 64)           1964      
_________________________________________________________________
conv1d (Conv1D)              (None, 491, 64)           12352     
_________________________________________________________________
conv1d_1 (Conv1D)            (None, 491, 64)           12352     
_________________________________________________________________
conv1d_2 (Conv1D)            (None, 491, 128)          24704     
_________________________________________________________________
conv1d_3 (Conv1D)            (None, 491, 128)          49280     
_________________________________________________________________
conv1d_4 (Conv1D)            (None, 491, 256)          98560     
_________________________________________________________________
conv1d_5 (Conv1D)            (None, 491, 256)          196864    
_________________________________________________________________
conv1d_6 (Conv1D)            (None, 491, 256)          196864    
_________________________________________________________________
flatten (Flatten)            (None, 125696)            0         
_________________________________________________________________
dense (Dense)                (None, 4)                 502788    
=================================================================
Total params: 1,108,188
Trainable params: 1,106,224
Non-trainable params: 1,964
_________________________________________________________________
None
训练神经网络
Train on 298 samples, validate on 127 samples
Epoch 1/300
200/298 [===================>..........] - ETA: 2s - loss: 1.4123 - accuracy: 0.1300298/298 [==============================] - 7s 24ms/sample - loss: 1.6649 - accuracy: 0.3591 - val_loss: 1.1460 - val_accuracy: 0.8898
…
