…
Layer (type)                    Output Shape         Param #     Connected to                     
==================================================================================================
text_input (InputLayer)         [(None, 50, 1)]      0                                            
__________________________________________________________________________________________________
numerics_input (InputLayer)     [(None, 12, 1)]      0                                            
__________________________________________________________________________________________________
batch_normalization (BatchNorma (None, 50, 1)        4           text_input[0][0]                 
__________________________________________________________________________________________________
batch_normalization_1 (BatchNor (None, 12, 1)        4           numerics_input[0][0]             
__________________________________________________________________________________________________
conv1D_1 (Conv1D)               (None, 50, 32)       192         batch_normalization[0][0]        
__________________________________________________________________________________________________
conv1D_3 (Conv1D)               (None, 12, 32)       192         batch_normalization_1[0][0]      
__________________________________________________________________________________________________
conv1D_2 (Conv1D)               (None, 50, 64)       10304       conv1D_1[0][0]                   
__________________________________________________________________________________________________
conv1D_4 (Conv1D)               (None, 12, 64)       10304       conv1D_3[0][0]                   
__________________________________________________________________________________________________
dropout (Dropout)               (None, 50, 64)       0           conv1D_2[0][0]                   
__________________________________________________________________________________________________
dropout_1 (Dropout)             (None, 12, 64)       0           conv1D_4[0][0]                   
__________________________________________________________________________________________________
concatenate (Concatenate)       (None, 62, 64)       0           dropout[0][0]                    
                                                                 dropout_1[0][0]                  
__________________________________________________________________________________________________
batch_normalization_2 (BatchNor (None, 62, 64)       256         concatenate[0][0]                
__________________________________________________________________________________________________
conv1d (Conv1D)                 (None, 62, 64)       12352       batch_normalization_2[0][0]      
__________________________________________________________________________________________________
conv1d_1 (Conv1D)               (None, 62, 64)       12352       conv1d[0][0]                     
__________________________________________________________________________________________________
conv1d_2 (Conv1D)               (None, 62, 128)      24704       conv1d_1[0][0]                   
__________________________________________________________________________________________________
conv1d_3 (Conv1D)               (None, 62, 128)      49280       conv1d_2[0][0]                   
__________________________________________________________________________________________________
conv1d_4 (Conv1D)               (None, 62, 256)      98560       conv1d_3[0][0]                   
__________________________________________________________________________________________________
conv1d_5 (Conv1D)               (None, 62, 256)      196864      conv1d_4[0][0]                   
__________________________________________________________________________________________________
conv1d_6 (Conv1D)               (None, 62, 256)      196864      conv1d_5[0][0]                   
__________________________________________________________________________________________________
conv1d_7 (Conv1D)               (None, 62, 512)      393728      conv1d_6[0][0]                   
__________________________________________________________________________________________________
conv1d_8 (Conv1D)               (None, 62, 512)      786944      conv1d_7[0][0]                   
__________________________________________________________________________________________________
conv1d_9 (Conv1D)               (None, 62, 512)      786944      conv1d_8[0][0]                   
__________________________________________________________________________________________________
conv1d_10 (Conv1D)              (None, 62, 512)      786944      conv1d_9[0][0]                   
__________________________________________________________________________________________________
conv1d_11 (Conv1D)              (None, 62, 512)      786944      conv1d_10[0][0]                  
__________________________________________________________________________________________________
conv1d_12 (Conv1D)              (None, 62, 512)      786944      conv1d_11[0][0]                  
__________________________________________________________________________________________________
flatten (Flatten)               (None, 31744)        0           conv1d_12[0][0]                  
__________________________________________________________________________________________________
dense (Dense)                   (None, 2)            63490       flatten[0][0]                    
==================================================================================================
Total params: 5,004,170
Trainable params: 5,004,038
Non-trainable params: 132
__________________________________________________________________________________________________
None
训练神经网络
Train on 442 samples, validate on 189 samples
Epoch 1/300
400/442 [==========================>...] - ETA: 0s - loss: 0.6935 - accuracy: 0.4800442/442 [==============================] - 5s 12ms/sample - loss: 0.7236 - accuracy: 0.4864 - val_loss: 0.6902 - val_accuracy: 0.6349
…
