…
2020-03-10 22:31:56.545174: I tensorflow/compiler/xla/service/service.cc:168] XLA service 0x2afcb00ef110 executing computations on platform Host. Devices:
2020-03-10 22:31:56.545194: I tensorflow/compiler/xla/service/service.cc:175]   StreamExecutor device (0): Host, Default Version
/public/home/liqi/programing/transcribe_cnn
搭建神经网络
Model: "model"
_________________________________________________________________
Layer (type)                 Output Shape              Param #   
=================================================================
numerics_input (InputLayer)  [(None, 493, 1)]          0         
_________________________________________________________________
batch_normalization (BatchNo (None, 493, 1)            1972      
_________________________________________________________________
conv1D_3 (Conv1D)            (None, 493, 32)           192       
_________________________________________________________________
conv1D_4 (Conv1D)            (None, 493, 64)           10304     
_________________________________________________________________
dropout_2 (Dropout)          (None, 493, 64)           0         
_________________________________________________________________
batch_normalization_1 (Batch (None, 493, 64)           1972      
_________________________________________________________________
conv1d (Conv1D)              (None, 493, 64)           12352     
_________________________________________________________________
conv1d_1 (Conv1D)            (None, 493, 64)           12352     
_________________________________________________________________
conv1d_2 (Conv1D)            (None, 493, 128)          24704     
_________________________________________________________________
conv1d_3 (Conv1D)            (None, 493, 128)          49280     
_________________________________________________________________
conv1d_4 (Conv1D)            (None, 493, 256)          98560     
_________________________________________________________________
conv1d_5 (Conv1D)            (None, 493, 256)          196864    
_________________________________________________________________
conv1d_6 (Conv1D)            (None, 493, 256)          196864    
_________________________________________________________________
flatten (Flatten)            (None, 126208)            0         
_________________________________________________________________
dense (Dense)                (None, 4)                 504836    
=================================================================
Total params: 1,110,252
Trainable params: 1,108,280
Non-trainable params: 1,972
_________________________________________________________________
None
训练神经网络
Train on 298 samples, validate on 127 samples
Epoch 1/300
200/298 [===================>..........] - ETA: 1s - loss: 1.4463 - accuracy: 0.0450298/298 [==============================] - 5s 17ms/sample - loss: 1.3451 - accuracy: 0.3020 - val_loss: 0.6146 - val_accuracy: 0.8898
…
